linear2layer200epochs.pt (torch, 958111 bytes, 4 tensors)

1.weight f4 [300, 784]
-0.014723552 -0.005988624 0.024539232 -0.01483638 0.031297315 0.0032724142 0.0053448677 0.02394713
0.022451397 -0.023387667 -0.029957062 0.027609657 -0.0340128 -0.00031206638 0.033194795 -0.006780115
0.0232438 0.018500745 -0.026379492 0.02382395 0.013904385 0.0067620613 0.022918954 0.02091482
0.03253157 -0.009184735 -0.0095710885 0.029273394 -0.034967646 0.026029747 0.025150612 0.032028396
0.00065272534 -0.002948295 -0.010281666 0.027136233 0.0016653173 -0.020429563 0.022439202 0.018351898
0.016423464 0.030711297 0.011511088 -0.017907443 -0.03408698 0.01714403 0.013908813 0.02500698
-0.0016405483 -0.00031887268 0.027918378 0.021981485 -0.0141919125 0.03328703 -0.011903146 0.023078855
-0.032589026 0.0034056567 -0.0027410614 -0.015456306 -0.00030954456 -0.02413556 0.04159039 -0.007067923
0.040250596 0.03173385 0.037715454 0.051003084 0.063482046 0.05390347 0.098000616 0.060796328
0.060774706 0.039328735 0.07469817 0.032461695 0.038806867 0.05513042 0.034292072 0.008516376
-0.011996172 -0.001912813 0.03324597 0.024750557 0.0034879036 0.025349032 -0.033024024 0.014500326
0.009163975 -0.01212581 -0.007779891 0.048220083 0.042549767 0.00792091 0.039594185 -0.0067674937
0.01950141 0.11120033 0.03827654 0.058462184 0.04680306 0.052445214 0.03156409 0.06555202
0.02852629 0.025329635 -0.0036785067 -0.011641465 0.031747736 0.00081217306 -0.029491765 -0.034372445
0.023746971 -0.012129221 -0.030262684 0.02490662 -0.0057590087 0.04529855 0.014138985 -0.0118823135
0.050304346 0.022588203 0.011641184 -0.039008852 -0.00050211145 0.09127139 0.09272427 -0.0032092317
0.07907359 0.024160486 -0.030400982 0.1083927 0.06683502 0.092395 0.019697737 0.0684894
-0.0070658242 -0.045699548 -0.024697438 0.005710494 -0.009473542 -0.0073578227 -0.0022507713 -0.0050429855
-0.00824755 0.038583733 0.02606428 0.028248003 0.0070463815 -0.05320606 -0.061299685 -0.13091853
-0.07163642 -0.081420824 0.0037328817 0.087846786 0.07477675 0.041322093 0.024756711 0.017006481
0.05117308 0.072035514 0.052187406 0.08601456 0.060790513 0.02967315 0.024556402 0.035327543
-0.026847057 -0.015654854 0.012568624 -0.043082688 0.039139815 -0.02418577 0.0026726895 -0.046019394
-0.11601892 -0.14579765 -0.16342601 -0.14478366 -0.09856144 -0.10720797 -0.087066695 -0.030065445
-0.0066807126 -0.10827054 -0.10247607 -0.021332573 -0.027549267 -0.03284267 -0.018300192 0.03304675
0.057440337 0.047604438 0.025911195 -0.018595807 -0.009850236 0.009395772 0.0068286234 -1.910547e-05
0.036024544 0.019098472 -0.0913071 -0.107482694 -0.16223249 -0.11973992 -0.13281041 -0.054756433
-0.05605505 -0.132793 0.05608184 -0.04673597 -0.040707007 -0.031772222 -0.06545782 -0.012229283
-0.007441318 -0.022844566 -0.08670639 -0.07128972 -0.0063201725 -0.040626246 0.024360523 0.015104895
-0.00093498494 -0.01831131 -0.016687285 -0.0013878207 -0.008908796 0.03536377 -0.084782325 -0.11316674
-0.13433549 -0.08967717 -0.07658697 -0.041924052 -0.10561021 -0.00014677957 -0.08659134 -0.026410012
-0.15106136 0.027183497 -0.12110843 -0.017887168 -0.056817498 -0.099704936 -0.124583505 -0.10100359
-0.060294453 -0.032865465 -0.015163248 -0.0371495 -0.008565799 0.00394024 -0.037857063 -0.04795429
00000000: 0e3b 71bc 383c c4bb 8006 c93c 4a14 73bc
00000010: 9d31 003d 0076 563b 0024 af3b c62c c43c
00000020: feeb b73c 7e97 bfbc 8368 f5bc a62d e23c
00000030: 0151 0bbd d79c a3b9 44f7 073d ba2b debb
00000040: c869 be3c e08e 973c ce19 d8bc 722a c33c
00000050: 38cf 633c 4894 dd3b 88c0 bb3c 8e55 ab3c
00000060: d33f 053d 927b 16bc 0ed0 1cbc c2ce ef3c
00000070: 3c3a 0fbd 563c d53c a808 ce3c 3530 033d
00000080: a81b 2b3a 2f38 41bb 6f74 28bc ce4c de3c
00000090: c746 da3a e65b a7bc 6bd2 b73c b856 963c
000000a0: 808a 863c 4296 fb3c 0199 3c3c a1b2 92bc
000000b0: ca9e 0bbd a371 8c3c cae1 633c 70db cc3c
000000c0: ab07 d7ba 5e2e a7b9 15b5 e43c 8412 b43c
000000d0: 3285 68bc fb57 083d 6a05 43bc de0f bd3c
000000e0: 127c 05bd 7031 5f3b 61a3 33bb 723c 7dbc
000000f0: 5e4a a2b9 f0b7 c5bc af5a 2a3d 099a e7bb
00000100: cfdd 243d 5afb 013d 857b 1a3d 9ce8 503d
00000110: e002 823d e3c9 5c3d 8cb4 c83d 9205 793d
00000120: e6ee 783d 2b17 213d 5bfb 983d 8ef6 043d
00000130: f3f3 1e3d 6fd0 613d d875 0c3d 4588 0b3c
00000140: 988b 44bc 5bb7 faba ed2c 083d aec1 ca3c
00000150: 5095 643b c6a8 cf3c 3344 07bd c692 6d3c
00000160: 7f24 163c 55ab 46bc 75ee febb 6c82 453d
00000170: aa48 2e3d b4c6 013c 832d 223d dac1 ddbb
00000180: 6cc1 9f3c 00bd e33d dcc7 1c3d 0b76 6f3d
00000190: 91b4 3f3d cbd0 563d 5949 013d 2340 863d
000001a0: f7af e93c 1880 cf3c 1a13 71bb d8bb 3ebc
000001b0: ea09 023d 03e8 543a b798 f1bc 1fca 0cbd
000001c0: 0289 c23c a4b9 46bc 73e9 f7bc f808 cc3c
000001d0: 11b6 bcbb f98a 393d 34a7 673c 09ae 42bc
000001e0: ee0b 4e3d e50a b93c aaba 3e3c bfc7 1fbd
000001f0: 21a0 03ba 7fec ba3d 39e6 bd3d f951 52bb
00000200: 56f1 a13d 36ec c53c 7b0b f9bc fefc dd3d
00000210: cde0 883d 9739 bd3d 265d a13c 2c44 8c3d
00000220: 6e88 e7bb 732f 3bbd 4852 cabc 181f bb3b
00000230: ea36 1bbc e419 f1bb ad81 13bb a13f a5bb
00000240: bb20 07bc fa09 1e3d c284 d53c 5b68 e73c
00000250: 55e5 e63b 99ee 59bd 6115 7bbd 820f 06be
00000260: 1eb6 92bd f6bf a6bd 5da3 743b 04e9 b33d
00000270: 8d24 993d 5b41 293d 96ce ca3c 2d51 8b3c
00000280: dd9a 513d 5b87 933d 76c2 553d 6728 b03d
00000290: 79ff 783d 1b15 f33c 822a c93c 9db3 103d
000002a0: 5cee dbbc 9c3e 80bc a1ec 4d3c 7977 30bd
000002b0: 1251 203d 3c21 c6bc 4a28 2f3b d57e 3cbd
000002c0: 549b edbd fb4b 15be 2659 27be 2b42 14be
000002d0: 95da c9bd da8f dbbd 0650 b2bd cf4b f6bc
000002e0: e1e9 dabb f2bc ddbd f9de d1bd a6c1 aebc
000002f0: 00af e1bc 0986 06bd 49ea 95bc 075c 073d
00000300: 8f46 6b3d dffc 423d b743 d43c 3c56 98bc
00000310: e262 21bc b9f0 193c a5c2 df3b af44 a0b7
00000320: 798e 133d 6674 9c3c 38ff babd e31f dcbd
00000330: 4620 26be 343a f5bd 74ff 07be 4848 60bd
00000340: fb99 65bd e3fa 07be 12b6 653d 376e 3fbd
00000350: 64bc 26bd 9723 02bd c00e 86bd 555d 48bc
00000360: 4dd6 f3bb 8724 bbbc 1f93 b1bd 5800 92bd
00000370: 7319 cfbb b567 26bd b88f c73c 867a 773c
00000380: c719 75ba 9a01 96bc c6b3 88bc 89e7 b5ba
00000390: 33f6 11bc 9ad9 103d 5ba2 adbd f7c3 e7bd
000003a0: 3e8f 09be aaa8 b7bd a1d9 9cbd 8eb8 2bbd
000003b0: 2a4a d8bd d7e8 19b9 cd56 b1bd cf59 d8bc
000003c0: d4af 1abe edaf de3c b207 f8bd 1c88 92bc
000003d0: 77b9 68bd 1a32 ccbd a325 ffbd f8da cebd
000003e0: 51f7 76bd f09d 06bd 466f 78bc 132a 18bd
000003f0: 9157 0cbc 211d 813b 0210 1bbd b86b 44bd

1.bias f4 [300]
-0.100968435 -0.025281651 0.05431334 0.3344551 -0.08234732 0.04224113 -0.22881848 0.08288757
0.076454215 -0.060717147 -0.10105405 0.11075157 0.030702038 0.090858944 -0.061725184 0.004805754
-0.08595937 -0.016575562 0.0054720426 0.078993864 -0.032773323 -0.0154649215 0.04716095 -0.02603203
-0.025956636 -0.033974715 -0.067332424 0.20216244 -0.021667438 0.07915784 -0.03970121 -0.24106918
-0.19886692 -0.12935565 0.026200932 0.18495457 0.008902365 0.025345037 -0.09049188 0.100706376
0.10984982 -0.053323306 -0.11136124 -0.26704553 0.03358275 -0.03278455 0.0236437 -0.061324
0.17504811 -0.04179957 0.31844127 -0.09824171 -0.09264717 -0.016606068 -0.018258763 0.1298139
-0.24495453 0.17339775 0.028134866 0.27111107 -0.117587805 0.21480994 -0.2061022 -0.15023428
0.043222006 -0.16466072 -0.02147095 0.22992906 -0.054856356 -0.11658055 0.1674709 -0.07866613
-0.038794216 -0.03434754 0.051172905 -0.04483526 -0.043694932 -0.05769505 0.019704234 -0.12074426
-0.00012378156 -0.051025573 -0.04853759 0.2111763 0.2780861 -0.3128618 -0.38488787 0.036305014
0.17375979 -0.18405756 -0.01795188 -0.055090282 0.010081279 -0.12629633 -0.045530383 0.09128932
-0.15852423 0.16618259 0.15383536 0.049646717 -0.12812346 0.052876264 -0.020467808 0.1530319
-0.09339824 -0.4257155 -0.04891429 0.036839847 0.25467494 0.044072017 -0.017449444 0.12495052
-0.042184204 0.015597695 -0.13236721 -0.088974796 -0.024567897 0.2021907 0.03208212 -0.08047354
0.0505674 0.011768649 -0.04893538 0.054999277 -0.022582874 -0.16689795 -0.026968092 -0.29937696
-0.06540829 0.01945999 -0.021799888 0.15353635 -0.01840887 0.023145452 -0.01726089 0.0073168264
-0.19166176 0.15431313 0.10436799 -0.015482959 -0.17469393 -0.28134146 0.16206487 -0.1656141
0.1581653 0.055173516 -0.022584641 -0.10387749 -0.279252 -0.021381624 0.09057983 -0.042891692
-0.30666783 0.33054996 -0.3127085 0.17006084 0.024887117 -0.09080744 -0.12974404 -0.21727802
-0.07567131 0.053190663 0.13925812 -0.019169964 -0.10044478 0.011595913 -0.22697225 -0.063312426
-0.11886511 -0.1997881 0.09709696 0.06789041 -0.049210187 -0.17736423 0.20408446 -0.0937553
-0.054027863 0.053520992 -0.11340237 0.11924319 0.12887573 -0.059975073 -0.06037962 -0.13204145
-0.34833845 -0.0676755 0.038357284 0.0039137127 0.036032517 -0.11082885 0.023455428 -0.20557588
0.21027069 0.13216127 0.09279954 -0.060578585 0.1541267 -0.16252871 -0.11539418 -0.024199683
-0.054400936 -0.020048708 -0.01353343 -0.024145685 0.45460033 0.12451394 -0.00281824 0.13098025
-0.009031095 -0.06744664 0.00013204626 -0.048424456 -0.12080184 -0.16838859 0.0031634404 -0.08304877
-0.001664382 0.081489034 0.015382419 -0.0055035893 -0.13621669 -0.027748074 -0.0263362 0.052417926
-0.029661598 0.17684485 0.07672894 0.014015599 0.13562573 -0.04131579 0.017560663 0.1528087
0.030185793 0.13483964 -0.023575576 0.15416077 -0.03256888 0.25652295 -0.032291863 -0.074367635
-0.06766985 0.026737716 -0.039544813 -0.07207608 -0.103474036 -0.07302966 0.14753915 -0.0427635
-0.07991729 0.005738862 -0.006741367 -0.10235356 0.081612386 0.038364902 -0.18122925 -0.002198519
00000000: 8ac8 cebd 771b cfbc aa77 5e3d b33d ab3e
00000010: b6a5 a8bd 0905 2d3d 644f 6abe f5c0 a93d
00000020: 0794 9c3d 8bb2 78bd 6df5 cebd b8d1 e23d
00000030: d782 fb3c 4114 ba3d 8cd3 7cbd 9679 9d3b
00000040: 770b b0bd 79c9 87bc d24e b33b 89c7 a13d
00000050: 523d 06bd 9560 7dbc d72b 413d 2041 d5bc
00000060: 03a3 d4bc 1229 0bbd 95e5 89bd ac03 4f3e
00000070: e97f b1bc 811d a23d bc9d 22bd d7da 76be
00000080: c5a3 4bbe cf75 04be 56a3 d63c bb64 3d3e
00000090: 3adb 113c 65a0 cf3c cf53 b9bd 253f ce3d
000000a0: f1f8 e03d 8a69 5abd 5d11 e4bd 31ba 88be
000000b0: 118e 093d 1849 06bd 6fb0 c13c e02e 7bbd
000000c0: d03f 333e 0736 2bbd bc0a a33e f332 c9bd
000000d0: cdbd bdbd 7309 88bc 6793 95bc efed 043e
000000e0: 5cd5 7abe 2e8f 313e 177b e63c 12cf 8a3e
000000f0: e0d1 f0bd 23f7 5b3e 750c 53be 04d7 19be
00000100: 8f09 313d d29c 28be d9e3 afbc 8672 6b3e
00000110: 0fb1 60bd c9c1 eebd 7e7d 2b3e b51b a1bd
00000120: afe6 1ebd 02b0 0cbd ae9a 513d 2da5 37bd
00000130: 75f9 32bd a551 6cbd c66a a13c c448 f7bd
00000140: 5ccb 01b9 3100 51bd 5acf 46bd 9a3e 583e
00000150: 4d61 8e3e 6c2f a0be 0610 c5be 91b4 143d
00000160: 16ee 313e 9679 3cbe d20f 93bc 59a6 61bd
00000170: f32b 253c d353 01be 117e 3abd e5f5 ba3d
00000180: 2d54 22be c52b 2a3e 0487 1d3e 5b5a 4b3d
00000190: cc32 03be c894 583d 1bac a7bc 65b4 1c3e
000001a0: 9447 bfbd 62f7 d9be 5a5a 48bd 61e5 163d
000001b0: c164 823e dc84 343d 23f2 8ebc 0fe6 ff3d
000001c0: 58c9 2cbd 798d 7f3c 458b 07be 6b38 b6bd
000001d0: 9d42 c9bc 140b 4f3e 8b68 033d 50cf a4bd
000001e0: c31f 4f3d 4bd1 403c 7770 48bd ec46 613d
000001f0: b8ff b8bc 4ce7 2abe 30ec dcbc f047 99be
00000200: c8f4 85bd 8f6a 9f3c ae95 b2bc a238 1d3e
00000210: 33ce 96bc 889b bd3c b666 8dbc fdc1 ef3b
00000220: fb42 44be 4304 1e3e e2be d53d 3dac 7dbc
00000230: f7e2 32be fd0b 90be 55f4 253e be96 29be
00000240: 16f6 213e a0fd 613d 6d03 b9bc b9bd d4bd
00000250: 1efa 8ebe 8428 afbc eb81 b93d 33af 2fbd
00000260: 9103 9dbe d83d a93e 541b a0be 6e24 2e3e
00000270: 11e0 cb3c 40f9 b9bd 9fdb 04be 217e 5ebe
00000280: 8ff9 9abd 74de 593d ae99 0e3e 540a 9dbc
00000290: feb5 cdbd c9fc 3d3c 6a6b 68be f2a9 81bd
000002a0: 8d6f f3bd 4095 4cbe c5da c63d 210a 8b3d
000002b0: 9f90 49bd f89e 35be 84fb 503e c702 c0bd
000002c0: 524c 5dbd d438 5b3d 803f e8bd c635 f43d
000002d0: 00f8 033e 6ca8 75bd 9f50 77bd e035 07be
000002e0: 6b59 b2be 7499 8abd 871c 1d3d 9a3e 803b
000002f0: d596 133d 3cfa e2bd 9925 c03c 7c82 52be
00000300: 3351 573e 4955 073e af0d be3d 4021 78bd
00000310: 64d3 1d3e ed6d 26be c953 ecbd 6a3e c6bc
00000320: 84d3 5ebd 303d a4bc 52bb 5dbc 2ccd c5bc
00000330: 60c1 e83e 2a01 ff3d 39b2 38bb b01f 063e
00000340: 28f7 13bc 7721 8abd e675 0a39 b958 46bd
00000350: f566 f7bd 0f6e 2cbe b951 4f3b 7915 aabd
00000360: 6527 daba b9e3 a63d 8b06 7c3c 7457 b4bb
00000370: 637c 0bbe ee4f e3bc 04bf d7bc 2eb4 563d
00000380: e1fc f2bc d116 353e 1024 9d3d afa1 653c
00000390: 79e1 0a3e bf3a 29bd 61db 8f3c e279 1c3e
000003a0: 3248 f73c 6713 0a3e 9121 c1bc 52dc 1d3e
000003b0: f266 05bd fa56 833e 7944 04bd 0f4e 98bd
000003c0: 7e96 8abd 0e09 db3c bef9 21bd a09c 93bd
000003d0: 32ea d3bd 9390 95bd 8114 173e c828 2fbd
000003e0: adab a3bd 100d bc3b afe6 dcbb be9e d1bd
000003f0: 6524 a73d 8424 1d3d 2994 39be 0715 10bb

3.weight f4 [10, 300]
-0.6050576 -0.10498974 -0.1938774 -0.12983298 -0.3193877 -0.2372227 0.014064816 -0.92197484
0.13818184 0.031859633 -0.16454153 0.49629632 -0.21766312 0.34271476 0.5963747 0.2809327
0.14351228 0.19850455 -0.9611505 0.7519602 -0.2740352 0.05341306 -0.7261725 -0.15983965
-0.6039138 0.6083135 0.40020466 0.54862887 -0.40055972 0.13220693 -0.29721883 -0.068073705
-0.5740838 -0.06748934 0.19336253 -0.032304574 -0.5550059 0.004799407 0.16633697 0.26939127
-0.5088878 -0.08131989 -0.020838588 0.09614101 0.3334669 -0.26508215 -0.5366773 0.08102748
-0.4080985 -0.11626847 0.5301739 0.31504658 0.10022669 -0.4495033 -0.21240458 0.18226324
0.23668538 -0.59587514 0.10352693 -0.3941614 0.38482913 0.6530834 0.74682844 -0.21799998
0.7078056 -1.2954876 -0.38555437 -0.05158745 -0.024531705 0.109079175 0.107139125 -0.15964215
0.21431008 -0.822429 -0.4082873 -0.031914584 -0.31383422 -0.09126505 -0.38371432 0.0944333
-0.065510206 0.26496422 0.023502562 0.04640429 0.2722851 -0.29439315 -0.3122361 0.049737725
-0.2985929 -0.010239784 0.136882 -1.2178735 0.15013036 0.39592022 0.42085764 0.3187124
-0.105457455 -0.36486042 -0.26953453 0.576993 -0.3170943 -0.23334667 0.9625301 0.3058369
-0.7794255 -0.6550916 0.13230655 0.05176178 -0.7213723 0.07729637 -0.03870539 -0.014951097
-0.028761802 -0.059643365 0.17350066 0.38731423 0.22207826 -0.0953874 0.13538185 -0.4861444
-0.13185884 -0.23050332 -0.2038933 0.22842823 -0.14285956 -0.26937932 0.53764796 -0.21845405
-0.75046664 -0.7306336 0.73587406 -0.21472952 -0.2294998 -0.39748746 -0.581887 0.34826314
-0.14866756 0.4063205 0.22562702 0.44593042 0.37813583 0.13700143 -0.22623463 0.4087294
-0.19660968 0.65896595 0.2883102 -0.18319505 -0.41391593 0.5851043 -0.25640476 0.26376662
0.105080515 0.76806563 0.43362543 -0.023684394 -0.20847721 0.6774072 -0.2472657 -0.21120611
0.123549715 -0.03854772 -0.41210705 0.1331154 0.06561891 0.122836486 0.4500675 0.6453069
-0.16059296 -0.6618555 -0.50488245 0.10807143 0.5507604 0.28938088 -0.30929503 0.21400274
-0.2954811 0.47886947 -0.13121998 0.5137796 -0.22344273 -0.20597813 0.28255904 -0.20826288
-0.35862052 0.5431174 -0.37502322 0.1799322 -0.008039303 -0.006113363 -0.50653887 0.008296467
0.50469095 0.012455223 -0.5018316 -0.22170235 -0.008623186 0.36759418 -0.07444105 0.30783263
0.040387362 -0.20426047 0.5339002 0.3228154 0.7098137 0.17241064 0.10624111 0.0049358224
-0.6034913 0.3264592 0.42971885 0.06611702 -0.09089501 -0.16984852 0.45830518 -0.24184342
-0.2999946 -0.37745222 -0.2112761 -0.075177565 -0.55256397 0.07386495 0.27291545 0.109537184
0.49846527 -0.76588696 -0.2878808 -0.08067937 0.53905284 -0.3768892 -0.44942263 -0.65057373
-0.48541343 0.50719106 -0.19312362 -0.006364563 0.46586442 0.13428496 -0.18289031 -0.19428459
-0.54320234 -0.40662304 0.19664448 0.2296405 0.104458906 -0.16740373 -0.14455482 -0.37634864
-0.28430694 -0.06668513 0.048983503 -0.21006526 0.48900932 -0.031196548 0.027322244 -0.10261461
00000000: 0ee5 1abf dc04 d7bd cc87 46be f0f2 04be
00000010: c986 a3be 82ea 72be 1d70 663c 8b06 6cbf
00000020: 8a7f 0d3e 3f7f 023d 937d 28be 8d1a fe3e
00000030: 15e3 5ebe 4f78 af3e 03ac 183f 69d6 8f3e
00000040: e2f4 123e c744 4b3e f60d 76bf 7780 403f
00000050: 574e 8cbe a7c7 5a3d 71e6 39bf 01ad 23be
00000060: 189a 1abf 6fba 1b3f a0e7 cc3e f172 0c3f
00000070: 2a16 cdbe 4161 073e 112d 98be 3a6a 8bbd
00000080: 28f7 12bf da37 8abd d400 463e cd51 04bd
00000090: de14 0ebf 5844 9d3b 3d54 2a3e a7ed 893e
000000a0: 7946 02bf 0b8b a6bd b0b5 aabc 94e5 c43d
000000b0: 2cbc aa3e d9b8 87be af63 09bf bcf1 a53d
000000c0: 49f2 d0be 2a1e eebd 7ab9 073f c94d a13e
000000d0: a743 cd3d 4c25 e6be 9680 59be 37a3 3a3e
000000e0: a75d 723e 468b 18bf ed05 d43d 86cf c9be
000000f0: 5308 c53e 7930 273f 2630 3f3f 633b 5fbe
00000100: bf32 353f 8ad2 a5bf 6267 c5be 5d4d 53bd
00000110: b7f6 c8bc e764 df3d c26b db3d 3b79 23be
00000120: 1a74 5b3e b58a 52bf 080b d1be deb8 02bd
00000130: e1ae a0be 2ce9 babd 3476 c4be 3f66 c13d
00000140: 372a 86bd 64a9 873e 7288 c03c 6d12 3e3d
00000150: f468 8b3e b3ba 96be 69dd 9fbe c9b9 4b3d
00000160: 2be1 98be c4c4 27bc cc2a 0c3e 47e3 9bbf
00000170: c6bb 193e 0eb6 ca3e a77a d73e 462e a33e
00000180: 14fa d7bd fcce babe 6e00 8abe d0b5 133f
00000190: 2f5a a2be 6ef2 6ebe 5f68 763f a796 9c3e
000001a0: 6e88 47bf 15b4 27bf 5e7b 073e 2904 543d
000001b0: dbab 38bf 8f4d 9e3d 8b89 1ebd 72f5 74bc
000001c0: df9d ebbc 9a4c 74bd 28aa 313e 0d4e c63e
000001d0: 7c68 633e 785a c3bd 8aa1 0a3e ebe7 f8be
000001e0: 0106 07be 1009 6cbe 68c9 50be 17e9 693e
000001f0: c749 12be 16ec 89be 4ca3 093f 6bb2 5fbe
00000200: 951e 40bf ce0a 3bbf 3e62 3c3f 0ee2 5bbe
00000210: ff01 6bbe 7a83 cbbe 8cf6 14bf 8c4f b23e
00000220: 4f3c 18be 3e09 d03e c50a 673e fe50 e43e
00000230: 059b c13e 1a4a 0c3e 0daa 67be fb44 d13e
00000240: 0c54 49be feb1 283f 659d 933e 7c97 3bbe
00000250: caec d3be 65c9 153f 7c47 83be 6b0c 873e
00000260: 7434 d73d f39f 443f 2704 de3e c605 c2bc
00000270: 0d7b 55be 8f6a 2d3f 3833 7dbe 6a46 58be
00000280: a207 fd3d 37e4 1dbd b2ff d2be 674f 083e
00000290: 3563 863d b291 fb3d 3f6f e63e d532 253f
000002a0: 7b72 24be 5d6f 29bf fa3f 01bf 8e54 dd3d
000002b0: a2fe 0c3f bb29 943e eb5b 9ebe 8923 5b3e
000002c0: 4c49 97be 612e f53e 885e 06be 0f87 033f
000002d0: 2cce 64be eeeb 52be 94ab 903e dd42 55be
000002e0: 1c9d b7be be09 0b3f 0b03 c0be 2640 383e
000002f0: 48b7 03bc 9b52 c8bb 88ac 01bf e8ed 073c
00000300: 6d33 013f fe10 4c3c 0978 00bf f105 63be
00000310: 4348 0dbc 4e35 bc3e 8d74 98bd 3d9c 9d3e
00000320: 386d 253d a829 51be afad 083f 0f48 a53e
00000330: 5ab6 353f 6a8c 303e f094 d93d aebc a13b
00000340: 687e 1abf a925 a73e 1c04 dc3e 5c68 873d
00000350: 2a27 babd c5ec 2dbe faa6 ea3e cda5 77be
00000360: e498 99be 6b41 c1be c358 58be b2f6 99bd
00000370: d574 0dbf 8246 973d 93bb 8b3e 0855 e03d
00000380: d736 ff3e 2b11 44bf 1d65 93be 3a3b a5bd
00000390: 5eff 093f 9ff7 c0be b91a e6be 008c 26bf
000003a0: 1c88 f8be 46d7 013f 33c2 45be d38d d0bb
000003b0: c885 ee3e ff81 093e 9947 3bbe 8af2 46be
000003c0: 4f0f 0bbf e530 d0be 2c5d 493e e126 6b3e
000003d0: 8dee d53d e26b 2bbe 2e06 14be c5b0 c0be
000003e0: ae90 91be 3792 88bd eda2 483d 591b 57be
000003f0: 6e5f fa3e e78f ffbc e6d2 df3c 9c27 d2bd

3.bias f4 [10]
-0.008204337 0.048917614 0.018701816 -0.020672781 0.016177606 0.03515754 -0.05723542 0.008435349
0.024029665 0.037569273
00000000: 7c6b 06bc d65d 483d 8d34 993c f759 a9bc
00000010: e686 843c 5a01 103d b06f 6abd 6b34 0a3c
00000020: dcd9 c43c 3de2 193d
