linear1layer200epochs.pt (torch, 35047 bytes, 2 tensors)

1.weight f4 [10, 784]
000000 e0 b3 c3 3b d6 29 fa 3c ec ea ee bc ca 71 f7 bc
       0.0059723705 0.030537527 -0.029164754 -0.030205626
000010 94 8c 1d 3c e0 43 c9 3a 70 16 08 bb 6e 2a b3 bc
       0.009616036 0.0015355311 -0.0020765327 -0.021870818
000020 00 4f f2 39 b0 36 64 3c 54 49 78 3c 13 68 c3 bc
       0.00046216697 0.013929054 0.015154202 -0.023853337
000030 af c7 fc bc e4 0c 0c bd 59 dd 40 bc 41 95 a0 3c
       -0.030856935 -0.03419198 -0.011771523 0.01960242
000040 18 a1 60 bc 7c 33 8d 3c 98 0c 99 3c de 7b df 3c
       -0.013710283 0.017236464 0.018682763 0.027280744
000050 20 47 c1 bc b8 cf 2d bc 00 da a7 38 ec f0 b9 3c
       -0.023593485 -0.010608606 8.003786e-05 0.022697888
000060 40 f0 81 ba 78 77 c1 3c 64 ba ec bb 4b 43 0e 3d
       -0.0009913519 0.023616537 -0.007224368 0.034732144
000070 b5 cf d8 bc ae 0a 54 bc d4 39 46 3c cb 74 0b 3d
       -0.02646623 -0.012941999 0.012098748 0.03404693
000080 71 44 ea bc 7d 47 c5 3c 59 ef ba bc 8e f0 b2 bc
       -0.028597089 0.02408194 -0.022819208 -0.021843221
000090 01 cf d7 3c da 2b 13 bd e4 f7 76 3b ea 93 c8 3c
       0.026343824 -0.035930492 0.0037684375 0.024484593
0000a0 e0 1d df 3d 6e e3 32 3c 8e c8 e9 3c f9 05 2b 3d
       0.1089437 0.010918481 0.028538015 0.041753743
0000b0 02 b3 06 3e 5f be 46 3d 10 62 24 bc 1f ba 07 3d
       0.13154224 0.048521396 -0.010033146 0.033136483
0000c0 aa 75 a4 3c be de ac ba 7c 2a 40 3c 44 99 32 bc
       0.020075638 -0.0013188941 0.011728879 -0.010900799
0000d0 64 e9 3e 3c ff 6a 0b bd 9c 6a 4c bc 06 df f5 3c
       0.011652324 -0.034037586 -0.0124765895 0.030013572
0000e0 f8 9a f9 bc c8 05 d5 3c d9 41 01 3d b1 b1 e4 bc
       -0.030469403 0.026003733 0.031556938 -0.027916761
0000f0 d3 74 31 bc 02 06 f5 38 e2 0d 4f bc 00 2c 3a bd
       -0.010831076 0.000116836294 -0.012637587 -0.045452118
000100 9b d9 f0 bc e1 51 58 bd 2b 69 30 bd 2b 4e c5 bc
       -0.029400637 -0.05281246 -0.043069046 -0.024085125
000110 ee 9c 47 bd 75 2e 06 be 3f 2e 30 be 1e 71 5a be
       -0.048733644 -0.1310366 -0.17205141 -0.21332213
000120 02 9c 2d be c4 49 0d be c0 7f c9 bd d9 66 ab bd
       -0.16954044 -0.1379767 -0.098388195 -0.08369226
000130 9d 0b f7 bc 34 4b 5a bd b0 ec b3 3b 4c 11 d0 bc
       -0.030156905 -0.053294376 0.005490862 -0.025398873
000140 bf 05 e7 3c 53 70 c1 bc 32 1c 4a bc 58 f4 c6 3c
       0.028200982 -0.02361313 -0.012335824 0.024286434
000150 a0 45 25 bb 38 54 48 bc ea 2b 43 3c 36 78 aa 3c
       -0.0025218502 -0.012227111 0.011912325 0.020809274
000160 bf fe 9d 3a 53 b9 c6 bd 6c 8a 2d be 2f 6e 21 be
       0.001205407 -0.097033165 -0.16947335 -0.15764688
000170 f5 e2 d9 3b 47 94 12 bd 9f d3 96 3c 23 61 8d 3d
       0.00664937 -0.03578594 0.018411456 0.06903293
000180 d6 06 c5 bb 89 9b 67 3e 19 7a 90 3e 7b 71 06 3e
       -0.006012778 0.22617926 0.28218153 0.13129227
000190 fc ff 0b 3e cd 70 19 3e 4b 0f 12 be 0d 96 51 be
       0.13671869 0.14984436 -0.14263646 -0.20467396
0001a0 91 a1 cb bd 18 bf 73 be 52 d1 35 be 06 8d 95 bd
       -0.09942926 -0.23803365 -0.1775563 -0.07302289
0001b0 21 0e 0f bc 2d 41 3c 3c a0 94 a3 b7 9c 60 93 bb
       -0.008731396 0.0114901485 -1.9500323e-05 -0.0044976007
0001c0 6a f9 37 bc de 17 0b bc 60 7a 9b bc 3d 1e da 3c
       -0.011228899 -0.008489577 -0.018979251 0.026625747
0001d0 43 e1 68 3c 1b 92 34 be a1 a6 0e be 2b 64 98 bc
       0.014213863 -0.1763386 -0.13930751 -0.018602451
0001e0 5e 1f 2e 3d 28 c5 5b 3e 60 6b 49 3d a9 a1 9c 3e
       0.042510383 0.21461928 0.049174666 0.30592087
0001f0 ce b8 b4 bb 15 7a 50 3e 50 f6 a9 bc d2 00 30 3e
       -0.0055151945 0.2035907 -0.020747334 0.17187813
000200 6b ca 02 be 65 03 6f 3e 9b 36 73 3d 12 cf 6f bd
       -0.12772529 0.23341139 0.059378248 -0.058547087
000210 29 68 5c bd 6d 7b 1c be 1e 72 cf bc e1 c3 87 bd
       -0.053810272 -0.15281458 -0.02532297 -0.06629158
000220 a3 41 6f be 04 03 9c bd 15 8b f5 3b 73 46 d4 bc
       -0.23364882 -0.07617763 0.0074933865 -0.025912499
000230 3a 86 c7 bc 46 a0 20 bc 26 9d 9e 3c 11 9c 4c 3c
       -0.024355996 -0.009803837 0.019362044 0.012488381
000240 8f b4 04 bd 55 2d 7c be 74 68 0f bd 82 b9 62 3c
       -0.032398757 -0.24626668 -0.035011724 0.013838174
000250 3f 94 0b 3e 3b a0 ad 3d 38 36 a1 3e df 83 25 3e
       0.1363077 0.08477827 0.31486678 0.16163586
000260 98 28 36 be 6c ee 30 3e ee c4 8f 3e a2 9e b6 3d
       -0.17788923 0.1727845 0.28079933 0.089169756
000270 42 98 dc 3d f0 9c 7a 3e 15 fc af 3e 6c 87 e9 3d
       0.107712284 0.2447393 0.3437201 0.11402783
000280 e9 cc f2 bd 22 fe 61 3d 95 68 33 3d 08 68 6d be
       -0.1185549 0.055174 0.04380091 -0.23184216
000290 2a 41 8a be 46 d8 1e be f7 51 bb bc 7f a9 b7 bc
       -0.2700284 -0.1551219 -0.022866232 -0.02241969
0002a0 f6 4c ad 3c 56 97 f2 3c ff c8 3c 39 53 3c 23 bd
       0.021154862 0.029613178 0.00018003954 -0.03985245
0002b0 f6 f8 c2 bd 7b 54 5c bd 5c f0 78 3d 44 d8 ed 3d
       -0.09520142 -0.053791504 0.0607761 0.11613515
0002c0 5f 29 97 3c 10 dd be be a2 a9 45 bc a2 97 b3 bd
       0.018452344 -0.37278032 -0.012064369 -0.08769156
0002d0 06 f2 86 be 72 6a b4 3e 5a ee 78 3e 8f 7f 9e bd
       -0.26356524 0.3523746 0.24309674 -0.077391736
0002e0 c4 99 28 3e 63 e0 f4 3d 48 43 79 3e 4c b5 cf 3c
       0.16464907 0.11956861 0.24342072 0.025355004
0002f0 21 28 e7 3d 03 78 c3 3e 2e 3a e7 3e 25 1f d2 bc
       0.11286951 0.381775 0.45161575 -0.025649616
000300 51 a9 e6 be a9 c0 e6 be a8 9f 63 be 51 84 a9 bd
       -0.45051053 -0.45068863 -0.22228873 -0.082771905
000310 b8 a4 46 bc e4 fd d2 3c 20 c3 04 bd 01 ea 11 bd
       -0.012124233 0.02575583 -0.03241265 -0.035623554
000320 39 bc ff bd 97 f0 60 bc 89 b0 0e 3e 3a f4 a7 b9
       -0.124870725 -0.013729236 0.1393453 -0.00032034685
000330 62 52 9a be 64 60 f1 3d a1 06 07 3e 13 90 28 3e
       -0.30140978 0.11785963 0.13186122 0.1646121
000340 cd fe dd bc 7b 12 25 3e 03 0e 63 3d bc 4c 88 bd
       -0.027099038 0.16120331 0.055433284 -0.06655261
000350 57 df a0 bd 30 9c c0 3e a0 3e a4 3e 5f 66 2b 3e
       -0.07855099 0.37619162 0.3207903 0.1673827
000360 66 79 d2 3b 05 0c 53 bd 30 e8 4a bd a0 4b 93 3e
       0.006423163 -0.051525135 -0.049537838 0.28768635
000370 99 25 91 bd 6d 13 dc be db c8 5f be bd 0b 07 bd
       -0.07087249 -0.4298357 -0.21853964 -0.03297018
000380 48 27 05 3d bd 4e 33 bb bb b5 19 ba 2e 00 de 3c
       0.032508165 -0.0027360164 -0.0005863567 0.027099695
000390 87 85 1f be ca a0 51 bd ef c2 e0 bc 51 cb 92 bd
       -0.1557828 -0.05117873 -0.027436702 -0.07167686
0003a0 cc 47 96 3d 24 ed 84 3e 07 6e 5e bd c8 b6 9e bd
       0.07337913 0.25962174 -0.05430415 -0.077497065
0003b0 78 2a 57 3e bb 03 bf bd 90 fc 9b 3e 1c 60 90 3e
       0.21012294 -0.093268834 0.30466127 0.28198326
0003c0 f8 1d 1d 3f 04 7e 8d 3e cf 9f 3e 3e 6a 71 bf bd
       0.61373854 0.27635205 0.1861565 -0.09347804
0003d0 7b f0 55 3e 2f 3a 59 3e 9c 48 16 3e a0 18 01 3f
       0.20892517 0.21213602 0.14676136 0.504282
0003e0 ac 74 61 3e 06 14 0b bf 46 af 4c be 0f 72 0f bd
       0.22017163 -0.5432743 -0.19988737 -0.035020884
0003f0 54 22 a7 3b 18 ff e2 3c 3a df f2 3c 0b 3a 75 3d
       0.005100528 0.027709529 0.029647458 0.059869807

1.bias f4 [10]
000000 3b 36 8c bf 95 49 89 3f da ee 4c 3e 9a f8 1a bf
       -1.095405 1.072558 0.2001299 -0.60535586
000010 c5 69 27 3e 98 e6 0c 40 b6 72 cf be 04 33 ad 3f
       0.16348942 2.2015743 -0.40517205 1.3531194
000020 a5 a8 12 c0 1b 7b fb be
       -2.2915432 -0.4911736
